…
g=0.0, nbs=64, hsv_h=0.015, hsv_s=0.7, hsv_v=0.4, degrees=0.0, translate=0.1, scale=0.5, shear=0.0, perspective=0.0, flipud=0.0, fliplr=0.5, bgr=0.0, mosaic=1.0, mixup=0.0, copy_paste=0.0, copy_paste_mode=flip, auto_augment=randaugment, erasing=0.4, crop_fraction=1.0, cfg=None, tracker=botsort.yaml, save_dir=/home/jbeni/Desktop/School/COP4934/AI-for-Safe-Driving/prototyping/runs/detect/train75
Overriding model.yaml nc=80 with nc=8

                   from  n    params  module                                       arguments                     
  0                  -1  1       464  ultralytics.nn.modules.conv.Conv             [3, 16, 3, 2]                 
  1                  -1  1      4672  ultralytics.nn.modules.conv.Conv             [16, 32, 3, 2]                
  2                  -1  1      7872  ultralytics.nn.modules.block.ELAN1           [32, 32, 32, 16]              
  3                  -1  1     18560  ultralytics.nn.modules.block.AConv           [32, 64]                      
  4                  -1  1     65216  ultralytics.nn.modules.block.RepNCSPELAN4    [64, 64, 64, 32, 3]           
  5                  -1  1     55488  ultralytics.nn.modules.block.AConv           [64, 96]                      
  6                  -1  1    145824  ultralytics.nn.modules.block.RepNCSPELAN4    [96, 96, 96, 48, 3]           
  7                  -1  1    110848  ultralytics.nn.modules.block.AConv           [96, 128]                     
  8                  -1  1    258432  ultralytics.nn.modules.block.RepNCSPELAN4    [128, 128, 128, 64, 3]        
  9                  -1  1     41344  ultralytics.nn.modules.block.SPPELAN         [128, 128, 64]                
 10                  -1  1         0  torch.nn.modules.upsampling.Upsample         [None, 2, 'nearest']          
 11             [-1, 6]  1         0  ultralytics.nn.modules.conv.Concat           [1]                           
 12                  -1  1    158112  ultralytics.nn.modules.block.RepNCSPELAN4    [224, 96, 96, 48, 3]          
 13                  -1  1         0  torch.nn.modules.upsampling.Upsample         [None, 2, 'nearest']          
 14             [-1, 4]  1         0  ultralytics.nn.modules.conv.Concat           [1]                           
 15                  -1  1     71360  ultralytics.nn.modules.block.RepNCSPELAN4    [160, 64, 64, 32, 3]          
 16                  -1  1     27744  ultralytics.nn.modules.block.AConv           [64, 48]                      
 17            [-1, 12]  1         0  ultralytics.nn.modules.conv.Concat           [1]                           
 18                  -1  1    150432  ultralytics.nn.modules.block.RepNCSPELAN4    [144, 96, 96, 48, 3]          
 19                  -1  1     55424  ultralytics.nn.modules.block.AConv           [96, 64]                      
 20             [-1, 9]  1         0  ultralytics.nn.modules.conv.Concat           [1]                           
 21                  -1  1    266624  ultralytics.nn.modules.block.RepNCSPELAN4    [192, 128, 128, 64, 3]        
 22        [15, 18, 21]  1    328072  ultralytics.nn.modules.head.Detect           [8, [64, 96, 128]]            
YOLOv9t summary: 941 layers, 1,766,488 parameters, 1,766,472 gradients, 6.7 GFLOPs

Transferred 1297/1375 items from pretrained weights
Freezing layer 'model.22.dfl.conv.weight'
[34m[1mAMP: [0mrunning Automatic Mixed Precision (AMP) checks with YOLO11n...
[34m[1mAMP: [0mchecks passed ✅
WARNING ⚠️ Box and segment counts should be equal, but got len(segments) = 14, len(boxes) = 30802. To resolve this only boxes will be used and all segments will be removed. To avoid this please supply either a detect or segment dataset, not a detect-segment mixed dataset.
…
